model.pt (torch, 49801 bytes, 41 tensors)

weight f4 [32, 5]
00000000: ed52 d0be 6594 903e 8d65 a03e ffb8 9ebe
00000010: 4d4b 2fbd b565 cf3e d901 52be 8864 91be
00000020: e225 913e fdb3 643e 7152 c93e 536a 53be
00000030: 295a fe3d 8a08 f33d 8d1e a83e b6a8 853e
00000040: 5f9c 013e abd1 84bd 8b99 8dbd ebb0 52be
00000050: b3ae 3a3e 6008 c53e 365e 46be 6fcf a8be
00000060: deda ab3e 13b2 633d c2ae 4abe f025 973e
00000070: 27da b6be 8fdc 5fbe ac6b 18be 6732 debb
00000080: 2e43 b33d b604 543e 174d 37be 294f 81bc
00000090: 9ba5 62be 6a3a 9dbe ebba d63d 859f a93e
000000a0: 33f0 cf3e a2e5 b1be ce62 2d3e b009 15be
000000b0: 7915 f0bc 9787 8abc 6c5c be3e 62ed c23e
000000c0: 2d67 babe 1276 cc3d e14c 8a3e ad45 023e
000000d0: eba1 e4bb 8b64 4dbe be5e 9cbe 159d cebe
000000e0: 7f57 2ebd a110 2cbe dc8b 173e 71f7 49be
000000f0: ce7f b33e 1609 aabe b6ea d43e 90e9 0cbe
00000100: 8b18 4a3d e417 09be 7d0a 3b3e 5665 ba3e
00000110: ec23 dd3e bf76 92be ee5c a13e 2e7f 933e
00000120: b33d babe 2316 2e3e acf0 a73d 0892 583e
00000130: a4e8 d83e ea0e af3b 8bb4 38be 72e1 26be
00000140: 59a6 863d 0f41 8bbd 22b1 9bbe ee98 483c
00000150: bd0b 883e 58fb 893c 694c 9f3e 0ac2 3cbe
00000160: c84e 9e3e f53e b33d a5ea 1fbe 9e8f 593e
00000170: f2ce 4f3e 06c4 3abe 901f d5bd 576d 653e
00000180: ae1f bdbe 7d5f 423e 8a93 e93d ca19 a3be
00000190: 9288 92bb 28c2 1b3e c12b 9e3e 78c3 9d3e
000001a0: 5b09 98be bb22 89be d5df 563e 129e dd3e
000001b0: b638 ce3e 655c 453e 1b99 d43e a3e3 46be
000001c0: 014b 0dbd b187 bbbe 3b67 92be 2458 9fbe
000001d0: c759 d6be cfc8 be3d 5860 c33d 9ef3 193e
000001e0: a1c2 973e 6f73 acbe 8c48 1ebe 02d9 ba3e
000001f0: bab2 c4be 444a b03e 25d7 e63d bc22 a8be
00000200: dfc5 d53d e4c3 083d 0d59 d53d abe7 e1bd
00000210: 8fb8 3e3e 884c af3e 9554 a53e bedb 2cbd
00000220: 8286 fbbe e411 d53e 5e48 003e 377b ad3e
00000230: 3d95 1e3e fb57 54bc 0ae8 6e3e fe46 853e
00000240: 55f9 bb3b 4888 843d f3df 82bc 4e19 953e
00000250: 9236 643e c726 8dbd 7f57 d03e 5f17 e33e
00000260: 4793 b43e f7a4 5f3d 9c04 4d3d a646 61be
00000270: 624c 9f3e ba84 9bbe 7dc1 cfbe 067d 243e
-0.40688267 0.28238216 0.31327477 -0.31000516 -0.04279642 0.40507284 -0.20508517 -0.28397012
0.28349215 0.22334285 0.3932071 -0.20646028 0.124195404 0.11866863 0.32835808 0.2610528
0.12657307 -0.064853035 -0.069140516 -0.20575301 0.18230705 0.38482952 -0.19371876 -0.3297076
0.3356542 0.055589747 -0.19793227 0.29521132 -0.35713312 -0.2186148 -0.14884824 -0.006780911
0.08753048 0.20704922 -0.17900501 -0.015784817 -0.22133486 -0.3070863 0.104848705 0.33129516
0.40612945 -0.34745508 0.16932222 -0.14554477 -0.029307114 -0.016910357 0.37179887 0.38071734
-0.36406842 0.099834576 0.2701178 0.12721892 -0.00697731 -0.20057885 -0.30541033 -0.4035422
-0.04256391 -0.16803218 0.14799446 -0.19723298 0.35058445 -0.33210057 0.4158532 -0.13760972
0.049339812 -0.1338802 0.1826572 0.36405438 0.4319147 -0.2860622 0.31516212 0.28807968
-0.36375198 0.17000632 0.082002014 0.21149457 0.4236499 0.005342354 -0.18037622 -0.16296938
0.06574697 -0.06799518 -0.3040858 0.0122434925 0.26571456 0.016843483 0.31112984 -0.18433395
0.3091948 0.087522425 -0.15616854 0.21246192 0.20293787 -0.1823884 -0.10406411 0.22404991
-0.36938232 0.18981738 0.11405094 -0.31855613 -0.004471847 0.15210783 0.30892757 0.30813193
-0.29694638 -0.2678431 0.20983823 0.4328466 0.40277642 0.19273527 0.4152306 -0.19422774
-0.034495357 -0.36626962 -0.28594384 -0.31121933 -0.4186537 0.09315645 0.095398605 0.15034339
0.29640678 -0.3368182 -0.15457362 0.3649369 -0.38417608 0.3443166 0.11271504 -0.32839
0.104381315 0.03338994 0.10417376 -0.11030515 0.18625091 0.34238076 0.32291093 -0.04220175
-0.4912606 0.41615212 0.12527606 0.33883068 0.15486617 -0.012960429 0.23330703 0.26030725
0.00573651 0.06471306 -0.015975928 0.29120868 0.22286442 -0.06892162 0.40691754 0.44353768
0.35268614 0.054600682 0.050053224 -0.21999606 0.31112963 -0.303747 -0.40577307 0.16063318

bias f4 [32]
00000000: ae20 d3be 6947 153e ffc5 62be fde7 d4bc
00000010: 7d14 22be 052b c43e 8154 94be f4c5 503d
00000020: 846c 8a3d 8c1a e8be b894 b53e 0e22 b13d
00000030: 629e a5be 413f e3be 6771 393e ed4c c13e
00000040: 27cc aabd 5ef5 0dbe a061 dfbe 9c58 a33e
00000050: 028c 3ebe c899 39be 4b67 323e 3f4d d03e
00000060: 7773 733e 3547 493e 5dd8 d23e ff3a 8dbd
00000070: 6b59 8b3d d769 6bbb 69d1 8cbe ba2c e73d
-0.4123587 0.14578022 -0.22145842 -0.025989527 -0.15828128 0.3831407 -0.2897072 0.050970033
0.06758979 -0.45332754 0.35465026 0.086490735 -0.323474 -0.44384196 0.18109666 0.37754002
-0.0833972 -0.13863131 -0.4362917 0.3190354 -0.18608096 -0.18125069 0.17422216 0.40683934
0.23774515 0.1965607 0.41180697 -0.06896018 0.068041645 -0.003592124 -0.27503517 0.11287828

weight f4 [32]
00000000: 9a06 7e3f 3f43 7e3f 106a 803f 7f18 7a3f
00000010: 8e12 7a3f e891 7d3f 9ec2 823f 6e3e 813f
00000020: ee93 7f3f 2cf2 7b3f c07e 803f bf0a 813f
00000030: 6085 7a3f a021 763f cce7 803f b7bb 793f
00000040: fb43 803f 5a10 823f 4d08 7d3f 762c 803f
00000050: d6d9 793f 6441 823f 668a 7d3f 605f 813f
00000060: 80f9 7b3f 2ad9 7e3f 2a93 7e3f 8396 803f
00000070: bd56 7c3f ee98 7c3f f8a6 7e3f 2e5b 7f3f
0.99228823 0.9932136 1.0032368 0.9769363 0.9768456 0.9905076 1.0215642 1.0097177
0.998351 0.984164 1.0038681 1.0081404 0.97859764 0.9614506 1.0070739 0.97552055
1.0020746 1.016124 0.9884079 1.0013568 0.97598016 1.0176206 0.99039304 1.0107231
0.9842758 0.99550116 0.99443305 1.0045933 0.9856985 0.9867085 0.99473524 0.99748504

bias f4 [32]
00000000: db54 803b 2972 a83c be93 93bc a130 3cbc
00000010: cb0e 1e3b cd7c 863b 113b 38bc 2af6 ad3c
00000020: ab07 033c b5bb e03a 1b70 953c a120 1dbd
00000030: 14aa 70bc 441a 37bc b1b5 37bc 8b33 14bd
00000040: aebe a33c d5c2 883c 1ba9 35bb 03a0 07bc
00000050: 86e0 3e3b 3d6d 00bd d02c 813c 77c2 453c
00000060: 3d5e f33c 7709 d6bb d218 163c ba43 cb3c
00000070: 3cfc 673c a82c 61bc bd81 15bb 8f3d b1bc
0.0039163656 0.020562248 -0.018014785 -0.011486203 0.0024117704 0.004104233 -0.011244551 0.021235544
0.007997434 0.0017145785 0.018241933 -0.038361195 -0.014688987 -0.011175696 -0.011212752 -0.036181968
0.019988384 0.016694466 -0.0027719203 -0.008277896 0.0029125526 -0.031354178 0.015768439 0.01207029
0.029708022 -0.00653189 0.009161191 0.024812568 0.014159258 -0.013743557 -0.0022812926 -0.021635799

running_mean f4 [32]
00000000: 1bd6 5d3f a329 923f 6bba 533f 2c1e 143f
00000010: f313 823f 0621 873f 3215 c23e 087e 5f3f
00000020: b505 803f 47b4 593f a2a3 703f 547e 613f
00000030: 56d4 673f 510f 593f bf52 883f 82be 8b3f
00000040: ed4d 253f e72d 303f c66c de3e a441 8d3f
00000050: 3bcf 433f 67e7 813f e12c 933f a5eb 923f
00000060: cb5c a13f 64dc 703f 4b3b 873f 846d 923f
00000070: b6a2 233f 6b73 183f 26b3 863f 49e1 8f3f
0.86654824 1.1418957 0.82706326 0.5785854 1.0162338 1.0556953 0.37906796 0.87301683
1.0001742 0.85040706 0.93999684 0.88083386 0.90558374 0.84788996 1.0650252 1.0917513
0.6457203 0.6882004 0.43442363 1.1035657 0.76488084 1.0148743 1.1498071 1.1478163
1.2606443 0.9408629 1.056497 1.1439672 0.6392015 0.59551114 1.0523422 1.1240627

running_var f4 [32]
00000000: c875 0040 bbbb 5440 8714 0340 db33 573f
00000010: ff26 4640 a618 1b40 34b8 0e3f ba65 fe3f
00000020: 692e 1440 2c62 0440 6ffc d43f 0e79 c63f
00000030: 83f2 1a40 abc3 2a40 fba0 1b40 6895 1840
00000040: f611 8f3f 2c2e aa3f 8bf2 1d3f b39e 1540
00000050: fb1f f13f 66a7 3140 b1b0 3e40 dd4f 0740
00000060: c31a 7640 0e53 eb3f cca8 0840 95fa 4240
00000070: f0d7 873f 6e94 673f 0297 4740 7d58 3940
2.0071888 3.3239582 2.048128 0.840635 3.0961301 2.4233794 0.5574982 1.9874794
2.3153327 2.068492 1.6639537 1.5505693 2.4210517 2.6681926 2.4317005 2.384119
1.1177356 1.329534 0.61698216 2.3378112 1.8837885 2.7758422 2.9795344 2.1142495
3.8453834 1.8384721 2.1353025 3.0465443 1.0612774 0.9046086 3.1185918 2.896026

weight f4 [32, 32]
00000000: e01b 8abd 207b 023e 5396 c3bd e174 21be
00000010: 2ef8 7bbd 1336 1a3e c5cb ebbd 52ca 7bbd
00000020: bd9f 623b 10e8 9abd e0e1 903d 3d34 1b3e
00000030: 1a69 da3d 73da a4bc 2e02 0fbe 07e1 34be
00000040: 36fa 3abd 255e 77bd 32c8 f2bd 9d8c 8f3d
00000050: 295b 43bd f6ad a33d a5d2 a1bd a794 cf3b
00000060: 7eb7 01bd 76e2 e93d 3000 0abe 9488 44bd
00000070: 0174 833d 0c5e d6bc f2d0 e23c 0571 c13d
00000080: 39e1 32bc bddc 223c 6d01 d63d ed5b 96bd
00000090: b332 6dbd 60a7 683d db62 c03c 6f83 ff3d
000000a0: fe3a d4bb cb1f 273e e525 003e 4d7c a2bc
000000b0: d2e2 c6bd 724b b43c 4a5c 3bbe 511e 91bd
000000c0: 2dd0 7b3d f2f4 64bc 071c 503d 0449 d2bd
000000d0: d733 093e c228 eabd 184f bbbd e2d6 a73d
000000e0: 2b17 2fbd e7e1 dc3c 5a2a 3dbc 1f88 09be
000000f0: 326c 6ebc 7997 673d 7594 013e b6a5 0f3e
00000100: 9cc5 3a3c 3f27 e33d 323a a63d 3cdb 80bb
00000110: bde3 d6bc eebe 183d c6eb 383d e44f 81bc
00000120: 5473 093e 1e83 08bc b338 bfbd 7bc5 c63d
00000130: 9d3d 5bbd 59be d93d 96a8 e53d 6a4b e13c
00000140: 8f60 49bd ed6f e5bc f6ed ce3d fc09 1ebe
00000150: fffb 55bd 453d cebd d773 14be 4a2d afbd
00000160: 0ebf 10be aa73 e53d 88c6 0a3e 033d 87bd
00000170: a02b 0fbe 2796 223e 26e7 403d c289 983d
00000180: 81ae 363d 3b0c 81bd c8ad ddbd c013 ca3d
00000190: 9c79 22be 339d 15be 9fa5 8f3d 19e2 4bbd
000001a0: a2b5 9e3c 55aa e03d 0298 c0bd 992a debd
000001b0: 0645 f3bd efcb 0abe 7657 d4b7 bced 1b3e
000001c0: 4007 143c 40fa e13d 89fa 89bd 4f44 7db8
000001d0: a005 01be 40dd 4f3b 0df2 303d 059a e5bd
000001e0: 5d57 213e ef17 843d a5f4 9e3d 021e 2c3e
000001f0: 6566 803d 2cea b0bc 9fcb 8e3d aab1 3b3e
00000200: 3f76 6cbe e834 12bd b5b1 cc3d 503a 0bbd
00000210: 9ec8 32be be34 fdbd 2011 c4bd 4696 803d
00000220: b032 e83d 6749 03bd 35a8 13be 1817 263d
00000230: 2686 483d 69c4 98bd d4a1 7c3d de15 3ebd
00000240: ae09 1e3d c226 ee3d a1a0 653d 9041 f0bc
00000250: 982b 263e 7fa7 40bd 4000 31be 671c ec3d
00000260: c69e 2a3e fbee a63d f160 093e 0afa 8d3d
00000270: 314c 823d 97d8 ab3d 38e8 f0bd eeb4 eabc
00000280: ecd9 b0bd fa88 853d 5651 f8bd b04a 34bb
00000290: 6d7c 4b3d 70ca 96bd f368 95bd 2389 babd
000002a0: 711f 903d bd39 e1bd 4506 2ebd 1c18 e13c
000002b0: 7a9c 853d 8ef9 22be ddae 603b edb9 8ebd
000002c0: b2be c2bc f39d 23be 96dd 03be 22e1 233d
000002d0: d201 f73c 925d 063e 1046 2f3e 0e78 e83d
000002e0: 6a07 a23d baa9 bb3d 3589 af3d 2f36 3ebe
000002f0: 9c04 163e 9ae6 d33c 56b5 60bc 7f8e a3bd
00000300: a929 2f3e 6ea5 fd3d 3c15 37bb 187b 7cbd
00000310: e99b aabd 7072 dc3d 887d e4bd 3b16 0bbe
00000320: c9a7 d3bd dc66 643d a227 0c3e a9c3 773d
00000330: 20fa 843d de86 0cbe a71a ecbd 63a2 c8bd
00000340: 3588 f2bd e5e0 73bd 1918 b0bd 1930 4ebd
00000350: db12 d7bd fb1c 893d e275 253c 2734 2d3c
00000360: e3b5 a43d 3f84 19be 5bda 82bd 87f8 05bc
00000370: b126 16be 0520 c13d 01f8 d4bd 6245 093e
00000380: b41e 403e a47f 1a3d 1b14 b6bd 1791 b73d
00000390: e404 f4bd 452f 19bb 42d7 113e 72e0 333e
000003a0: b0a2 d93b 033d 54bc 6303 51bd e027 36be
000003b0: 6fb0 a23c e876 d9bd 6620 973c 1130 9dbd
000003c0: 841f fc3d 47bd 83bd 3361 0d3e 20e6 4cbd
000003d0: 0f41 83bc cab8 00be 76a7 063e 3e0b ab3c
000003e0: b12c 26be 6df0 f03b 464b 9f3d b762 e4bc
000003f0: 7d52 0b3e f60c c33d 790a 85bd c3f7 2a3e
-0.06743598 0.12742281 -0.095501564 -0.15767242 -0.06151598 0.1505969 -0.11513475 -0.061472245
0.0034580075 -0.07563794 0.07074332 0.15156646 0.10664578 -0.020123696 -0.13965675 -0.17663966
-0.045648776 -0.060392518 -0.118545905 0.07009242 -0.04769436 0.07992165 -0.079015054 0.0063348594
-0.031669132 0.11420147 -0.13476634 -0.047981814 0.0641861 -0.026167892 0.027687524 0.09445385
-0.010917955 0.009940323 0.10449491 -0.07341752 -0.05790968 0.056800246 0.023484638 0.12476241
-0.006476759 0.16320722 0.12514456 -0.019834662 -0.09711231 0.022008631 -0.18296924 -0.070858605
0.06147783 -0.013974415 0.05080798 -0.10267833 0.13398682 -0.11433555 -0.09145945 0.081952825
-0.042746704 0.026963187 -0.011545742 -0.13430832 -0.014552163 0.05654094 0.12654288 0.14028057
0.011399653 0.1109147 0.081165686 -0.003932385 -0.026231641 0.03729146 0.045146726 -0.015785165
0.134229 -0.008332042 -0.093369864 0.09705635 -0.053525556 0.10632009 0.11213796 0.02750178
-0.04916435 -0.028007472 0.10103981 -0.15433496 -0.052242275 -0.1007028 -0.14497314 -0.0855356
-0.14135382 0.11203702 0.13552296 -0.06603434 -0.13981485 0.15877591 0.04709544 0.0744815
0.044600014 -0.06301161 -0.10824162 0.09867048 -0.15866703 -0.14610748 0.070140116 -0.04977617
0.019373719 0.10969988 -0.09403993 -0.108479686 -0.118783996 -0.13554357 -2.5313097e-05 0.15227407
0.009034932 0.110340595 -0.06737239 -6.0383518e-05 -0.12599802 0.0031717569 0.043199588 -0.112110175
0.15755983 0.064498775 0.07761506 0.16808322 0.0626953 -0.021596037 0.069724314 0.18329492
-0.23091982 -0.035694987 0.099948324 -0.033991158 -0.17459342 -0.123635754 -0.09573579 0.062786624
0.11337793 -0.032052424 -0.14419635 0.040549368 0.04895606 -0.07459337 0.06167777 -0.046407573
0.03858345 0.11628486 0.05606139 -0.029328138 0.16227567 -0.047034737 -0.17285252 0.11528855
0.1666213 0.08151051 0.13415886 0.06932457 0.063621886 0.083909206 -0.11763042 -0.028650727
-0.08635315 0.06520267 -0.121248886 -0.0027510338 0.04967921 -0.07362831 -0.07295408 -0.09108188
0.07037247 -0.10997341 -0.042486448 0.027477317 0.06523986 -0.1591551 0.0034283914 -0.06969056
-0.023772571 -0.15978222 -0.12877497 0.040009625 0.030152235 0.13121632 0.1711657 0.113510236
0.0791157 0.09163232 0.08571092 -0.18575357 0.14650196 0.025866795 -0.013715109 -0.07986163
0.17105736 0.12385069 -0.002793624 -0.06164083 -0.08330519 0.10764015 -0.11156756 -0.13582699
-0.10334737 0.055762157 0.13686994 0.06048933 0.0649302 -0.13723323 -0.11528521 -0.09796598
-0.11842386 -0.059540648 -0.08598346 -0.05033884 -0.10501643 0.06694981 0.010098906 0.010571516
0.08042505 -0.14991854 -0.06389304 -0.008176929 -0.14663197 0.09429935 -0.103988655 0.13405374
0.18761712 0.037719384 -0.088905536 0.089632206 -0.11914995 -0.0023374122 0.1424227 0.17566088
0.0066417083 -0.012953999 -0.05102862 -0.17788649 0.01985952 -0.10618383 0.018448066 -0.076751836
0.12310699 -0.06432586 0.1380661 -0.05002415 -0.016022233 -0.12570491 0.13149819 0.020879384
-0.16227986 0.0073528797 0.07778029 -0.027879102 0.13605686 0.095239565 -0.06496138 0.16696076

bias f4 [32]
00000000: 2cc4 a9bd f8b5 1bbd 454c 47be d539 be3d
00000010: 1614 30bd e94f d9bd b0af 3f3d 9d77 34bc
00000020: 20d2 c13d cf5e ffbd 480b 433e 44d8 d9bd
00000030: edcb 943d 935d 333e e203 6d3c 5f70 19be
00000040: 8b24 48be 7394 2a3e 02ff 16be 48cf 80bd
00000050: 4a76 943d 9d1a 21be d0c8 053e 26a6 a03c
00000060: c011 483c f187 b33c bed0 d73c d83c cb3d
00000070: 00d2 05be 5aa4 0d3d 0685 6ebd 3684 463e
-0.0828937 -0.038015336 -0.19462688 0.09288374 -0.042987905 -0.10610945 0.046798408 -0.011014846
0.09463906 -0.12469255 0.19047272 -0.106369525 0.07265458 0.17516164 0.014466258 -0.14984272
-0.1954519 0.16658191 -0.14745715 -0.06289536 0.07249124 -0.15732808 0.13064885 0.019610476
0.012211263 0.021915408 0.026344653 0.099237144 -0.1306839 0.034580566 -0.05823233 0.19386372

weight f4 [32]
00000000: 8f8e 803f cebb 803f f28c 803f c38d 7b3f
00000010: 4dec 7c3f cd40 7f3f f8cb 793f 12e4 823f
00000020: ccbf 7f3f 0a96 7e3f e55e 793f 30a6 813f
00000030: 4d8c 7d3f d0ea 7b3f 949a 7a3f 44f3 803f
00000040: adc1 823f ce62 813f c052 773f fb58 7d3f
00000050: 0c30 7f3f 2b06 7b3f fab3 7b3f a06c 7e3f
00000060: 508b 813f 41b3 793f a863 803f 71a3 7a3f
00000070: 711a 7d3f 57db 813f e3f1 823f acfc 7b3f
1.0043505 1.0057313 1.0043013 0.98263186 0.98798066 0.99708253 0.97576857 1.0225852
0.99902034 0.9944769 0.9741042 1.0128841 0.99042207 0.9840517 0.9789212 1.0074239
1.0215355 1.0108278 0.9661064 0.989639 0.9968269 0.98056287 0.983215 0.993845
1.012064 0.97539145 1.0030413 0.9790564 0.9886847 1.0145062 1.0230068 0.9843242

bias f4 [32]
00000000: 4480 96bc b952 de3a 596a 1b3d e233 973c
00000010: 9594 19ba 7fa7 533d afc6 27bd 3b1e e3bc
00000020: fd0c 2cbd fc27 0abd 7d1c 10bc 4e26 4cbc
00000030: f96c 883d 725c 2dbb 8684 023c 91cb 333d
00000040: a33d 05bd 7caf 133d e2f9 29bc fa2f 2fbc
00000050: 76ab ea3b 6072 2d3d 06dd 21bd 5501 9b3c
00000060: 77af 44bd 7fc0 cabc dbe3 0d3d 2b2d 46bd
00000070: 90a1 0d3d d777 fa3c 0ab5 373d ab88 7dbd
-0.018371709 0.0016961909 0.037943218 0.018457357 -0.0005858627 0.05167341 -0.040960964 -0.027724376
-0.042004574 -0.03372954 -0.008795855 -0.012460304 0.0666141 -0.0026452807 0.007966166 0.043895308
-0.032529484 0.036056027 -0.010374518 -0.010692591 0.007161553 0.042345405 -0.039517425 0.018921534
-0.0480189 -0.024749992 0.034641128 -0.04838292 0.034577906 0.030574722 0.044850387 -0.061897915

running_mean f4 [32]
00000000: 3a01 0e3e a689 0a3e 7603 823d 5cc5 573e
00000010: 3af4 a73e a412 1d3e 1489 8c3e 69fe 1c3e
00000020: a315 843e 4a0f 453e 29c5 9f3e 282b 193e
00000030: 053b 283e e4de ae3e 855e 973e 3a04 7d3e
00000040: 1fac 233e 71ee a53e c56c 053e 1ecd 003e
00000050: 818b 9b3e c683 943d 9d42 853e a2f5 a43e
00000060: f867 633e 03a4 403e c47a 583e 2d97 8a3e
00000070: 32eb 1f3e 0824 883e bd2d 233e 4eb5 963e
0.13867655 0.13529071 0.06348316 0.2107138 0.32803518 0.15339142 0.27448332 0.15331425
0.25797758 0.19244114 0.3120511 0.14957869 0.16428764 0.34154427 0.295643 0.24708644
0.15983628 0.3240848 0.13029774 0.12578246 0.3037987 0.07251696 0.26027384 0.32218653
0.2220763 0.18812566 0.21140581 0.27068463 0.15617064 0.2658999 0.15935417 0.294352

running_var f4 [32]
00000000: c694 193d 4c51 783d 6261 c63c 01c2 ae3d
00000010: 43a6 9d3e 34c2 973d 71dd f83d 407f 9c3d
00000020: 1859 c93d 98a6 023e 48fc 2e3e 4772 fd3d
00000030: db85 603d 29d1 2f3e 9771 873e 76f8 f03d
00000040: 6316 c53d 7c48 e63d aab3 9c3d bb42 aa3d
00000050: ebfa 833e 9cf8 fe3c 61ee 8b3d 801e d03e
00000060: 3fef 093e e21d 5f3d bbd5 e23d 530d 4d3e
00000070: 4369 c43d 480d 533e 2404 853d 8b7d d63d
0.037495397 0.060624406 0.024216358 0.08533097 0.3079091 0.07410088 0.121516116 0.076414585
0.098314464 0.12758863 0.17088425 0.12375312 0.054815155 0.17169632 0.2645385 0.1176614
0.096234106 0.11244294 0.07651456 0.08313509 0.25777373 0.031124406 0.068325765 0.4064827
0.13470171 0.054471858 0.11075922 0.20024614 0.095903896 0.20610535 0.064949304 0.10473164

weight f4 [32, 32]
00000000: 53f7 fdbd 835d 003e 3ee7 6e3d dd1a 6e3c
00000010: 2baf 733d dd00 e83c c5e2 c2bd bd2d a1bd
00000020: 7aaf b8bd 8397 a4bd 6eb4 cb3d 1420 10bd
00000030: e56a 6ebc d097 5d3c 42c3 223e 1328 aa3a
00000040: cb30 afbd 9a7e 12be 1152 e33d 58c4 33be
00000050: dfda bc3d db5a 0c3e 7c62 b23d e1ef f3bc
00000060: f1d1 63bc 1bb1 033e 54ef d7bd 2f24 733d
00000070: 61f9 9ebd a71d a93d bdbc b6bd 2284 f3bd
00000080: fd36 b2bd f4ea cf3d 3e73 793d 8f76 03be
00000090: fd92 1dbe 9d0f 6ebd 6c44 a5bc 66d6 86bd
000000a0: 910e fc3d 9e73 023c 3af6 91bd d752 70bc
000000b0: b2c7 223d 59ff e2bd 14a7 36be 15e7 14be
000000c0: ee2b 803d a98c 293d 3eda 3cbe 7202 fa3d
000000d0: 7223 c13d 859d 5cbe 699c 173e 1c44 71bd
000000e0: 1471 20bc 0e64 dd3d 75fa c93d 83c4 d73c
000000f0: 1987 90bd 3c72 ee3d c450 1f3e 0688 2ebb
00000100: 48fd 0dbe 2cdd 113e eb78 97bd a1bc 05be
00000110: 9c96 35be 713f af3d 8603 923d 9cd0 b5bd
00000120: 6eb8 29be 399e e13d 8580 c3bc 6852 3c3e
00000130: 23f4 aebb 4a72 1c3e 741b 5cbd d62b f6bd
00000140: ec34 a73d 9305 443d 3607 013e 8b04 233c
00000150: 422e 03be 0934 ddbd 441e 33bd 3a38 bfbc
00000160: 3c96 b1bd 068d 153e ecfe bfbd 102b b43c
00000170: f897 c83d 8d7a 953d 73a9 3c3c 56e1 a63d
00000180: 6377 a3bd d7b9 32be 3246 4b3d bb2c 06be
00000190: c58b 3bbe 0886 eebd dd50 183e 3a32 06be
000001a0: 1405 033e f9a6 f03d 031d c53c 145d 16be
000001b0: 6240 1bbe 8264 0ebe c0e2 a83d 800b 01be
000001c0: 560d 84bd e54c 1d3d 2a4d dabc 3b83 843d
000001d0: 5f24 30be a26e fc3d c134 debd 4aa2 febd
000001e0: d5ed 0bbe 29b5 eb3d 1908 80bd f338 59bd
000001f0: c9f3 b33d d300 05bd 4f9a 0e3e 6d6c 163d
00000200: 34e5 73bd cde2 e8bd dd15 19be c75c 5d3c
00000210: 2dfd ee3b c3a4 2c3e a9bf 05be 3c7e d63c
00000220: b9c6 803d ecab bc3d 5a07 d13d e00e 85bc
00000230: 6645 31be 9211 06bd bb2d 293e 6873 dfbd
00000240: 9092 0dbe 5c34 323e d190 61bc b5df 8abd
00000250: 316c 0d3b 8ca3 913d de36 b53c 00aa 033e
00000260: 93de 383c e16b 92bd 4ea1 d8bd 1c11 22ba
00000270: 86e4 36bd b158 073e 31a2 963d 5a19 073e
00000280: bd6e 0d3e c641 2c3e 9b48 36be f8f0 01bd
00000290: 5661 61bb 1e73 ff3d 7262 bcbb b043 c03d
000002a0: c8bb babb 96a2 36be acd1 a93c f5d3 23bb
000002b0: ccd7 e2bd d7a5 1d3e a244 03be 33aa 08be
000002c0: 0897 fbbd cbd3 16be b3ae e2bc 8202 debd
000002d0: 0fb5 253e 97f0 8e3d c3a3 b33d 5b02 2a3e
000002e0: ed36 0bbe 80a2 acbd 69a0 163e d1a3 053e
000002f0: 20bd 413d f930 dd3d b0bb 163d b1a5 abbc
00000300: 3eb8 93bd 6795 8c3d 7561 2ebe 1947 313e
00000310: 8c75 2cbe d2e0 0abe 0208 093e 6bb7 c6bd
00000320: 85da 8dbd 2dee 8fbc 1be0 19be 2d80 8ebc
00000330: b433 a2bc e94c a0bc c15e 5b3b ac12 f2bd
00000340: 8527 67bd 62ec df3b c5d4 1dbe 7376 fdbd
00000350: 14de 053e f4d0 01be 17eb 02bd b006 cbbd
00000360: 9abe 303e a53f c83d f593 c03d 66ed a6bd
00000370: e493 0abe 5380 e7bc 51c0 fc3d c785 0a3d
00000380: 528e a2bd 85ce 1abe 9486 443e 0b84 4c3d
00000390: 6a8d e33d 8d35 05be 4ff9 5f3c 2c81 1e3e
000003a0: 196b 2cbe d497 29be bb87 35be ed2e 36bd
000003b0: d765 82bc 00a7 aa3d c2eb 76bd 5afc 0a3e
000003c0: d2a9 383e 9ac8 183e 0ec9 d4bd e5ad 9d3d
000003d0: 58f0 b93d cbba 143e 6387 11be 1f8b 54bc
000003e0: ede3 5fbd efba 88bd 1bd9 473d 97c2 613c
000003f0: 953d 8a3d ce63 afbd dd5a 49bd 165f ad3d
-0.12400689 0.12535672 0.058326 0.014532772 0.059493225 0.028320724 -0.09515909 -0.07870052
-0.090178445 -0.08036711 0.099465236 -0.035186842 -0.014551853 0.013524964 0.15894797 0.0012981914
-0.085542284 -0.14306107 0.11099637 -0.17555368 0.09221434 0.13706534 0.08710191 -0.02977747
-0.013905034 0.12860529 -0.10543695 0.05936068 -0.07762409 0.08257609 -0.08922718 -0.11890437
-0.087018944 0.101522356 0.06090092 -0.12838195 -0.15388103 -0.05812036 -0.020174228 -0.06583862
0.12307466 0.007962136 -0.07127042 -0.014668188 0.039741226 -0.1108386 -0.17837173 -0.14541276
0.06258379 0.04139391 -0.18442628 0.12207498 0.09430589 -0.21544464 0.1480576 -0.058902845
-0.009792585 0.108100995 0.09862224 0.026338821 -0.07057018 0.11642882 0.15558153 -0.002663137
-0.1386615 0.14244527 -0.0739611 -0.13060237 -0.17733234 0.08557022 0.07129578 -0.0887768
-0.1657426 0.11016507 -0.023864994 0.1839081 -0.005339162 0.15277973 -0.05373712 -0.1202008
0.08164391 0.04785688 0.12600407 0.009949814 -0.12810615 -0.108009405 -0.043730035 -0.02334224
-0.08671233 0.14604577 -0.09374794 0.02199319 0.09794611 0.07298765 0.011515009 0.08148448
-0.079817556 -0.17453705 0.04962749 -0.13103001 -0.18315037 -0.11646658 0.14874597 -0.13105097
0.12794906 0.117505975 0.024061685 -0.14683944 -0.15161279 -0.13905528 0.08246374 -0.12602043
-0.06447856 0.03840341 -0.026648123 0.06470343 -0.17201374 0.12325789 -0.10849906 -0.12433298
-0.13664944 0.11509163 -0.062515445 -0.053032827 0.08786733 -0.03247149 0.13926052 0.036724497
-0.059544757 -0.11371384 -0.14949746 0.013510889 0.0072933645 0.16859727 -0.13061394 0.02618324
0.06287903 0.09212479 0.1020648 -0.016242445 -0.1731163 -0.0327316 0.16521351 -0.10910684
-0.1382544 0.17402786 -0.013767437 -0.0678095 0.002157938 0.07111272 0.02212089 0.12857819
0.011283535 -0.071494825 -0.105776414 -0.0006182359 -0.04465153 0.13217427 0.07355154 0.13193265
0.13811775 0.16821966 -0.17801134 -0.031723946 -0.0034390292 0.12473129 -0.0057490403 0.0938791
-0.005698655 -0.17835459 0.020729862 -0.0024998162 -0.11076316 0.15395294 -0.1281915 -0.13346176
-0.12284666 -0.1472923 -0.027671194 -0.10840322 0.1618235 0.069794826 0.087714694 0.16602461
-0.13595171 -0.08429432 0.14709629 0.13050772 0.047299504 0.108003564 0.036800086 -0.020953031
-0.07212876 0.06864434 -0.17029364 0.17312278 -0.16841716 -0.13562325 0.13381961 -0.09702953
-0.06926445 -0.017569626 -0.15026896 -0.017395103 -0.019800045 -0.019567924 0.0033473226 -0.11819968
-0.056434173 0.006833599 -0.15413196 -0.12376108 0.13072997 -0.12677366 -0.03196248 -0.09913385
0.17260209 0.09777764 0.094032206 -0.08150749 -0.13532978 -0.028259432 0.12341369 0.033818986
-0.07937302 -0.15117843 0.19191962 0.049930613 0.11110957 -0.13008709 0.01367028 0.15478963
-0.1683773 -0.16561824 -0.17727558 -0.044478346 -0.015917702 0.08332634 -0.06028343 0.13572827
0.18033531 0.14920273 -0.10389911 0.076991834 0.09079045 0.14524381 -0.14211802 -0.012972622
-0.054660726 -0.0667628 0.048791032 0.013779304 0.06750027 -0.08563958 -0.04915892 0.08465402

bias f4 [32]
00000000: 29f7 d73d 3304 b1bd cff4 103e 3e1d 923d
00000010: 6327 a83c e5c0 c93d 6ad2 ce3c 813a dbbc
00000020: e351 57bd b82f e6bd cc27 08be cf21 c5bb
00000030: 657f e9bd c117 e83c f653 e13c 008b 5bbe
00000040: 69e9 27be d740 0a3e 1a4c c6bd d51b f73c
00000050: 2115 0cbe dabb 13bd 973a c73d 0875 a83c
00000060: 34df a63d 6931 f6bc 4c4b 18be 535e 32ba
00000070: 4d1e a63d e8fa 753d abd6 163d 5d76 0abd
0.10545189 -0.08643379 0.14155887 0.07134484 0.020526594 0.09851245 0.025246818 -0.026761295
-0.052568328 -0.112395704 -0.13296431 -0.006015993 -0.11401252 0.02833164 0.027505856 -0.21439743
-0.16397633 0.13501297 -0.09682484 0.030164639 -0.13679935 -0.03606782 0.09727972 0.020563617
0.08148041 -0.030052857 -0.14872473 -0.00068042165 0.08111248 0.060053736 0.036825817 -0.033804286

weight f4 [32]
00000000: 1568 783f 27f5 783f 0520 7b3f fd55 823f
00000010: 1502 773f 5051 7e3f 8494 7c3f 5160 843f
00000020: c246 803f 8a91 803f 7357 7c3f 9f9c 7b3f
00000030: ed17 803f 7118 823f a800 813f bfa2 813f
00000040: 6fb1 7a3f 1fbe 843f 3e98 7d3f 1ce5 7a3f
00000050: 9051 793f a155 833f 4043 7b3f 36a0 7d3f
00000060: 2cf1 733f 8b81 7c3f efb9 7a3f 7a5d 7e3f
00000070: 14c4 783f 6653 7e3f 5dcd 7a3f 781a 833f
0.97033817 0.9724907 0.9809573 1.0182492 0.9648755 0.99342823 0.98664117 1.0341893
1.0021594 1.0044415 0.98570937 0.9828586 1.0007302 1.0163709 1.0078325 1.0127791
0.9792699 1.037052 0.9906043 0.98005843 0.9739008 1.0260507 0.9814949 0.9907259
0.95289874 0.98635167 0.9793996 0.99361384 0.9717419 0.99346006 0.9796961 1.0242453

bias f4 [32]
00000000: 41d7 5abc 3e38 21bc 7092 f0bc 69f6 ae3c
00000010: d73e 40bc 9115 513d babb 39bb 73d7 893b
00000020: 0e70 0b3d 374e 2f3b c824 793c 8016 33bc
00000030: 657d cb3c 4d9a 39bb 9fbb 93ba 334d 133b
00000040: 4519 303d 03cf 163a 9363 3a3b d666 393c
00000050: 91fb a23b 2ef0 a7bc 1749 773c 3752 a23c
00000060: 577b 883c fd49 bcbc 02ee cbbb 0d79 8abc
00000070: 7745 bebb 2671 8a3a 06f4 90bc 33fa fcbb
-0.013356985 -0.009840069 -0.029366702 0.021357732 -0.011733732 0.051045958 -0.0028340654 0.0042065918
0.03404241 0.00267495 0.015206523 -0.010930657 0.024840066 -0.002832073 -0.0011271125 0.0022476434
0.04299285 0.0005752893 0.0028440699 0.011316022 0.0049738367 -0.020500269 0.01509311 0.019814594
0.016660376 -0.0229845 -0.006223441 -0.016903425 -0.0058066207 0.0010562285 -0.017694484 -0.0077202558

running_mean f4 [32]
00000000: 2a6a 6f3f 414f 843f eee6 7d3f 5c5b 843f
00000010: 22f6 1d3f db8e 733f 096d 4c3f 0f70 783f
00000020: edd4 1b3f f569 2c3f d93b 383f 34b8 563f
00000030: c371 9f3f 0971 523f bf9d 9c3f 1a01 343f
00000040: 7b1c 843f 28bd 0e3f 4d3d a83f 0e84 853f
00000050: 98eb 063f a959 903f bf72 8d3f c0b7 ac3f
00000060: a75a ad3f 4dc1 2c3f 841c 443f d8dd 453f
00000070: b439 413f ef56 833f 9c3d 2c3f 383d 353f
0.9352137 1.0336686 0.99180496 1.0340381 0.61703694 0.95139855 0.79853874 0.9704599
0.60871774 0.6734918 0.7196632 0.8387482 1.2456592 0.8220373 1.223564 0.7031418
1.0321192 0.5575738 1.3143708 1.0430925 0.5270324 1.1277362 1.1050643 1.3493576
1.354329 0.67482454 0.7660601 0.7729163 0.75478673 1.0260905 0.6728151 0.7079654

running_var f4 [32]
00000000: 2cb6 4d40 ecbb 3640 4e0b 2d40 1ad8 ce3f
00000010: 191f 853f 85d2 1040 1248 6b3f 74bf 5440
00000020: 9fe2 c23f 562f 903f 690c 3040 a9da ee3f
00000030: aad7 8840 edcb c63f 1aaf 9240 75ba de3f
00000040: 1302 2b40 61f0 db3e 72e0 c040 a4c0 ef3f
00000050: 00f3 903f 0741 0d40 2ae1 d73f 97d0 fe40
00000060: 4f57 a240 1ed7 863f 446e f53f 24e7 903f
00000070: 7338 aa3f 04b3 6c40 524f a53f 138f b83f
3.214244 2.8552198 2.703815 1.6159699 1.0400115 2.262849 0.91906846 3.3241854
1.5225409 1.1264446 2.7507575 1.866048 4.276326 1.5530983 4.5838747 1.7400652
2.6720016 0.42956832 6.027398 1.8730664 1.1324158 2.207094 1.686559 7.9629626
5.073158 1.0534399 1.9174275 1.1320539 1.3298477 3.6984262 1.2914832 1.4418663

weight f4 [32, 32]
00000000: 375e 083e 6d43 e63d 11a9 8abc d30c bcbd
00000010: c984 ec3d 1d9e fbbd b40d f9bd 38e5 523d
00000020: 26ee ebbd 27d7 29be 2cf5 02be 7f31 013d
00000030: 0720 f5bd 2c7c 2a3e cb6b e7bb f943 a2bd
00000040: c8cc d8bd fa21 b4bd 8d98 003e 9119 e4bd
00000050: 07f8 2dbe a255 963d 673c 663d 5419 1dbe
00000060: 26dd 98bd 050d 1e3e 859d 75bd abb0 8b3d
00000070: 86c6 c4bd b64b 2dbe ec08 15be 613f 173e
00000080: 5252 043d d3ab 5a3d 5bbe 743d f968 8c3d
00000090: f732 e13d 462a 023e 560f 0e3e 6211 143d
000000a0: bcb9 793c 0740 ef3c fee9 26be 8523 983d
000000b0: bdcb 473d abd1 763d b661 8dbd c15d 183e
000000c0: 2d53 043d 11b0 17bd 5bb2 c0bc a725 8fbd
000000d0: 6977 c2bc 7b67 283e 5c74 803d 2dce 6cbd
000000e0: ef6f fdbc 73cc 003d d5b3 00be b302 8cbd
000000f0: 763c 283e 7d63 0dbc a188 5a3d 3260 7ebd
00000100: 58e0 afbd 1df1 243d 7780 c93d 7a31 4abe
00000110: 8fa2 2bbe 668a 7abd 0726 d43d 1262 2ebe
00000120: 0369 0f3e ccb7 2c3e 39ad 02bd 5611 91ba
00000130: 1804 e7bc 0ef8 0d3e b117 503b fb44 653d
00000140: c7c3 a5bd 192b 8bbc a88b 8abd ef1a d63c
00000150: e237 cabc 14e7 9e3c 6542 ab3c 4ff5 10be
00000160: a1e4 043e 3f4d c53d f748 063e a473 103e
00000170: 5d8d 903d f8c8 ee3d 5a24 d13d b2d7 803d
00000180: e324 9dbd 99d7 683d 7ec2 37bd b1c8 283d
00000190: e89a 183d 3069 04be a9f3 aabd 08e4 00be
000001a0: c88b 8dbd 1c69 823d e100 453d 390a fa3d
000001b0: 7c53 01be dc59 3c3d 4c6b f43d 01f2 05be
000001c0: feb2 0dbe c013 793d 9acf 9bbd 730b 893d
000001d0: 7033 89bd 90c0 e53c 7e89 13be 944a 1a3e
000001e0: 0735 bfbd 001d 3dbe f679 d5bd 29f9 c03c
000001f0: c354 2e3e 42de 353d 9179 44bd dc2a 1cbe
00000200: a0de a93d 35dd 0a3d a688 81bd 04ca 85bd
00000210: be7f 163d 8603 a33d 1b51 8dbd 286e a8bd
00000220: 2b21 5e3d c91d 21be 8a8b 823c 7685 073e
00000230: 1f54 f73d 8b80 33be 25e8 aebd f992 a33c
00000240: 3be4 ac3d feb9 ccbd ece3 37be 8f34 6c3b
00000250: 2f02 b83d 6fb3 e0bd 62a4 39be 11a6 1f3c
00000260: 9e82 cd3d 8e85 fdbd 067c ae3b b64c da3d
00000270: 5497 5c3d 500e b8bd a4d0 a2bd d93c d9bd
00000280: d3ec 343d c98c abbd 5b41 463c 8e8f 69bd
00000290: 87ad c5bd 72e7 3a3e c39a 1e3d 49f4 fc3d
000002a0: d689 083e 5de7 7c3d f327 48bc 4fbc 0fbd
000002b0: 1c51 dbbd 0df4 36be bec8 e3bd 14cb 8abd
000002c0: b562 233e 41a8 37be 8c5c a1bd 6182 10be
000002d0: f477 dcbd 927e ef3d a456 fdbd 8a4e fdbd
000002e0: 72bc cdbd 28bc 603d 2a53 62bd 9601 dbbd
000002f0: 5c58 1b3e b46c 323d f56e bebd 1f6f b6bd
00000300: 18d4 ba3d b008 293d 86d6 0ebe f3b0 0dbe
00000310: ac69 99bd 6416 9c3d a07a bbbd 89ff 2e3e
00000320: 92b8 173d 7a14 8c3d dad8 ad3d 34de 143e
00000330: 9ebd 33bd e8ff d3bd a515 b3bd 0918 163e
00000340: 0628 37bd 15b3 693b e204 1c3e 2427 efbc
00000350: 8603 9fbd 466b 70bd f52a c43d 0b79 08bd
00000360: 39ad 03be 5ae1 cb3d 3bfe cc3c ef79 a8bd
00000370: 8a2b 6f3d e3b5 0dbe 07b5 cabd 3616 4abd
00000380: d3de a13d d020 4ebd be7d f93d 7681 35be
00000390: dfce e83d d8d1 2bbe de05 22bd f95b 363e
000003a0: 9ef9 94bd 0736 8ebd 0ea9 993d b361 89bd
000003b0: bb56 8e3c b773 2bbd 9117 943d c155 0bbe
000003c0: 1570 dcbd 732e cfbd 2896 cdbc aff1 333e
000003d0: a166 b83d 7604 14be 7e64 c83d 55db 2b3e
000003e0: f716 323e 1109 2bbc 921d 933d 982f e03d
000003f0: 9650 243e 3019 153d 99ba 02bd f3dc 1f3e
0.1331719 0.11243329 -0.01692632 -0.091821335 0.11548764 -0.12286017 -0.12160817 0.05148813
-0.115200326 -0.1658598 -0.12788838 0.031541344 -0.11968999 0.1664893 -0.0070624105 -0.07923121
-0.10585934 -0.08795543 0.12558194 -0.11137689 -0.16989146 0.07340552 0.056209948 -0.15341693
-0.07464056 0.15434654 -0.059964675 0.06820806 -0.09608178 -0.16923413 -0.14554185 0.14770271
0.03230507 0.05338652 0.05975185 0.068559594 0.10996049 0.12711439 0.13873038 0.03614939
0.015242036 0.029205335 -0.16300198 0.0742865 0.048778284 0.06025855 -0.069034025 0.14879514
0.032305885 -0.037033144 -0.023522547 -0.069896035 -0.02373858 0.16445725 0.06272194 -0.057813812
-0.030937163 0.031444978 -0.125686 -0.06836452 0.16429314 -0.008629677 0.053352956 -0.062103458
-0.08587712 0.040269006 0.09838956 -0.19745436 -0.1676123 -0.061167143 0.10358816 -0.17029598
0.14004903 0.16866988 -0.03190348 -0.0011067789 -0.028200194 0.13864157 0.0031752402 0.055973988
-0.08093982 -0.016988324 -0.067649186 0.02613589 -0.02468485 0.019397296 0.020905683 -0.14156078
0.1297784 0.09633874 0.13113771 0.14106613 0.07058213 0.116594255 0.10212012 0.062911406
-0.07673051 0.056846235 -0.044863217 0.04120702 0.037257105 -0.12930751 -0.08347256 -0.12586987
-0.06911427 0.06367704 0.04809654 0.12208981 -0.12629503 0.045984134 0.11934528 -0.13080598
-0.13837811 0.06080985 -0.07607956 0.06691637 -0.06699264 0.028045923 -0.14407918 0.15067512
-0.09336286 -0.18468094 -0.10423653 0.023556309 0.17024522 0.044401415 -0.047967497 -0.15250725
0.082944155 0.033902366 -0.06324892 -0.06532672 0.03674292 0.079596564 -0.06900235 -0.08224136
0.05423085 -0.15734018 0.015935678 0.13234505 0.12076592 -0.17529504 -0.08540372 0.019967543
0.08441969 -0.09996413 -0.17958039 0.003604207 0.089847915 -0.10971724 -0.18129113 0.009744183
0.10034679 -0.12378989 0.0053248433 0.10659163 0.053855255 -0.08987105 -0.07949951 -0.10607309
0.044171166 -0.08376462 0.012100543 -0.05702167 -0.09652238 0.18252352 0.03872181 0.12351281
0.1333383 0.061744083 -0.012216556 -0.035091694 -0.1070883 -0.17866535 -0.11122273 -0.06777015
0.15955622 -0.17935278 -0.0787898 -0.14112236 -0.10765067 0.11694063 -0.12370041 -0.12368496
-0.10045709 0.05486694 -0.055255093 -0.10693662 0.15170425 0.0435607 -0.09298507 -0.089079134
0.09122485 0.04126805 -0.13949022 -0.13837032 -0.074908584 0.07621458 -0.09154248 0.17089666
0.037041254 0.06839843 0.08488627 0.14537889 -0.043882005 -0.103515446 -0.08744363 0.14657606
-0.044715904 0.003565972 0.15236238 -0.029193468 -0.07764344 -0.058696054 0.09578506 -0.03331856
-0.12859048 0.09955092 0.02502357 -0.08226382 0.05839113 -0.13838916 -0.098978095 -0.04933759
0.079038285 -0.05032426 0.121821865 -0.17725167 0.113675825 -0.16779268 -0.039556377 0.17808522
-0.07274173 -0.06943899 0.07502948 -0.06708088 0.01737534 -0.0418584 0.072310574 -0.13606931
-0.107635655 -0.10116281 -0.025096014 0.17572664 0.0900395 -0.14454827 0.09784792 0.16782887
0.17391573 -0.010439173 0.071833745 0.10946578 0.16046366 0.036400974 -0.031916235 0.15611629

bias f4 [32]
00000000: b5a8 283d eec8 ce3d dde6 283d c1e1 8f3c
00000010: 9e96 fabc e31f ba3c 9e44 8abc e3b0 f93d
00000020: 7b6a 183e 57e4 dcbd 4ec6 8f3d 5696 29bd
00000030: d343 183e e1e1 2cbe cc4b d1bc 5fbb 73bc
00000040: be39 093e f6e9 6f3d 33df 8fbb 47b1 1dbe
00000050: 6cd5 afbd 2874 433e c6a1 d0bc 73de 653d
00000060: ef31 1dbe 7f64 a83d 26d3 b5bd cefc 8fbc
00000070: e7fb 4b3e 85ba f03d 4b90 35be 4d63 b5bd
0.041176517 0.10096918 0.041235793 0.017563703 -0.030589398 0.022720283 -0.016878422 0.121919416
0.14884369 -0.1078574 0.070202455 -0.041403137 0.14869623 -0.16883041 -0.025548838 -0.014876216
0.13400933 0.058572732 -0.004390621 -0.15399657 -0.08585629 0.19087279 -0.025467765 0.056120347
-0.1535108 0.08222293 -0.08878164 -0.017576601 0.19920312 0.11754326 -0.17730825 -0.08856831

weight f4 [32]
00000000: ebdd 7a3f 76d2 813f 03aa 773f 40c7 7b3f
00000010: 92f1 813f 9d11 843f 457c 763f 1ef2 803f
00000020: 6e15 813f 2fb6 823f 9b2f 783f 1f40 743f
00000030: bc26 7e3f 8cfd 823f 59a9 843f 201d 7a3f
00000040: bf11 773f 3781 7d3f 4cde 7f3f 8c9a 783f
00000050: 090f 7f3f debd 7e3f 7413 833f d415 803f
00000060: 12b9 783f c519 7e3f 718a 7c3f ce83 7c3f
00000070: b9b3 7c3f b962 803f ebfb 7b3f 6750 7f3f
0.9799487 1.0142353 0.9674379 0.98350906 1.0151846 1.0317875 0.9628337 1.0073888
1.0084665 1.0211848 0.9694764 0.9541034 0.99277854 1.0233626 1.0364181 0.9770069
0.96511453 0.9902529 0.99948573 0.9711082 0.99632317 0.99508464 1.0240312 1.0006661
0.97157395 0.9925807 0.98648745 0.9863862 0.98711735 1.0030128 0.9843127 0.9973206

bias f4 [32]
00000000: c536 c4bc ce2f 79bb 4c4a 7dbc 9eae 16bc
00000010: 2129 15bd 4d5d b13c ef91 063c 6ece 34bd
00000020: 8800 ebbc 59b8 a33d a710 2fbd 94bf 9a3d
00000030: 7d76 f83c c84c a7bd 541a c13c 3ab3 bbbb
00000040: dbe8 513c 8df2 073d de4f bebc e4f0 43bd
00000050: 8bb5 363d 7fc5 4e3d d5b5 e0bc 2d3d 86bd
00000060: 8212 ef3c 871e a63d e28d 8abc 409d 823c
00000070: 426a 2fbd 3b5b a6bd 7d87 3c3b 9f8a af3a
-0.023951897 -0.0038022879 -0.015459608 -0.009196905 -0.036416177 0.021650935 0.008213504 -0.04414218
-0.028686777 0.07994146 -0.04274049 0.07556072 0.030329937 -0.08168942 0.023572125 -0.0057281526
0.012811865 0.0331903 -0.023231443 -0.047837153 0.044606727 0.050481316 -0.027430454 -0.06554637
0.02918363 0.081112914 -0.016913358 0.015944123 -0.042825945 -0.081228696 0.002876728 0.0013392753

running_mean f4 [32]
00000000: aa88 4a3e bb00 463e ca98 463e 892d 563e
00000010: 4e4e 2e3e 40d9 5a3e 9d1f 5b3e ecb8 c23e
00000020: 4dab 963e 741e f73d dc6c 213e c2cf 7c3e
00000030: 41f3 6a3e ed58 db3d 2bd6 0c3e 4278 373e
00000040: d351 b13e c0e8 973e deea 2a3e 5d51 f23d
00000050: 4af2 273e 392c a03e 6f80 2c3e 67c3 4f3e
00000060: 4ef2 133e ae41 8f3e 892c 193e 6a3a 333e
00000070: a96f d83e f462 a13e 4335 ce3d fff5 a13e
0.19778696 0.19336216 0.19394222 0.20915808 0.17022058 0.21371937 0.21398778 0.3803171
0.29427567 0.12066355 0.15764183 0.24688628 0.22944357 0.107103206 0.13753574 0.17916968
0.3463274 0.29669762 0.16691157 0.11831925 0.1640102 0.3128374 0.16845869 0.20289384
0.144479 0.27979797 0.14958395 0.17502752 0.4227269 0.31520808 0.100687526 0.31632993

running_var f4 [32]
00000000: 922d 933d b9f6 7c3d c143 e53d beda b53d
00000010: 0847 8b3d 934c 813d f564 0f3e 6550 003f
00000020: f3ca 243e 43c1 513d bc80 133d 5e5a 303e
00000030: 3504 ce3d f539 3a3d 2a8a 9d3d 35cb b83d
00000040: fcb9 e13e 0c8f c13d aed1 613d 680c 253d
00000050: da95 e13d 0d0f 0a3e d701 ab3d 3bfa 803d
00000060: 0a5c 8b3d d5cb 433e 29ed 7d3d a856 a83d
00000070: d707 6a3e 118a d33d 47bc 4f3d 45a9 733e
0.07186426 0.06175873 0.11194564 0.088796124 0.068006575 0.063134335 0.14003356 0.5012267
0.16093044 0.0512097 0.036011443 0.17221972 0.10059396 0.04546543 0.07692368 0.09023134
0.44087207 0.09451112 0.055131607 0.040295035 0.1101491 0.13482304 0.0834996 0.06297728
0.068046644 0.19120724 0.06199375 0.08219653 0.22854553 0.103290685 0.050716665 0.2379504

weight f4 [32, 32]
00000000: 0a3a 0c3e 6c56 e1bd 916c 11bd c8dd 1fbe
00000010: b7b7 40be fb7c 19be b58c b23d 208b fabd
00000020: 79ea 983d 915f e03d d57e 743d b2db 0ebd
00000030: 6a97 b93d 39ca ad3d ea91 dd3c 9ba1 93bd
00000040: 1984 233e 4e99 b13d 3c92 0fbd 332c 7e3d
00000050: 2294 fdbd 95f9 e8bc 1f2f 04be cfc3 3abe
00000060: 46e9 f83d 6905 7d3d c4ec 20bd 84a1 8dbd
00000070: 906f 92bd 3c3a 84bd 8051 d6bc b806 153e
00000080: 11b8 1a3e d437 ba3d 521e f2bd 56c7 31bd
00000090: 27f0 5c3d a07b ebbd 7df1 223e 98a1 c9bd
000000a0: 0966 0a3e c536 153c 0fa4 273e fd1f 993d
000000b0: d2b8 f03c e0aa 363e 79d5 203d 98ad 893d
000000c0: 2f04 9abd f5ee 21be 43b4 00be 20c4 09be
000000d0: 73f3 ea3d 03ca 9f3d 23c5 4c3d 6b7a 293e
000000e0: fae1 dcbd 7570 ba3d bbfb 3c3c 1162 3ebe
000000f0: dd18 08be 038e 293e df7c 203e d0ac 323d
00000100: 2aa3 91bd 2377 733d 7b37 ba3d 6e0e abbd
00000110: cfeb 3fbc 72f9 0abe 6ff5 243e 46e7 04be
00000120: 7fe4 dfbd fab1 dfbc d83d b63c 3b04 a03c
00000130: 08e1 243e 51fd d33d f94a 473d 067f 9a3d
00000140: b0d0 e33d 1a10 8fbc 6fa0 48bd 7125 f33d
00000150: 01f9 233e 5939 23bc 6ccf ccbc 1793 033e
00000160: 8b88 a1bd d86b 043e 4974 19be 074b f53c
00000170: e353 ed3d 8c70 26be a312 5cbd 02cb 173e
00000180: fa3c 053e 1580 eebd 0d30 153e 6e60 053e
00000190: 858c 903d 4d39 afbd 37e5 92bd 98e5 35bd
000001a0: 2be0 853d d261 3d3d 08a4 1c3d c653 edbd
000001b0: 9432 123e c387 543c 1b8d 573d e706 08be
000001c0: 4b6a 25bd 5f94 14bc 18fd fe3d 1ec4 f03d
000001d0: cf85 0bbe ae6b efbd d3b4 dbbd aabb 8fbd
000001e0: 4cb6 1abe 64bf 213e 39d4 e3bd bf5b 153e
000001f0: c5cf a23d b120 bbbd 57cc 95bd c3c1 5a3c
00000200: 24b7 43be ae90 a0bd e3a2 7d3d 644d 0abe
00000210: d314 2e3e 30ab e2bd 5a00 d0bb fff9 b7bd
00000220: 5479 9cbd aee3 3dbd c845 de3c 5610 c7bd
00000230: 9c66 0c3d 8e9d 9d3d 9bde 933d 6cc5 3ebe
00000240: b65f 9abd a48b e63d 1581 1b3e c998 bf3d
00000250: e69d 48be e642 c63c f4d4 0d3e 3ffc 8cbb
00000260: e73b 053e 4188 e9bd 50a1 b93d d888 803d
00000270: c292 30bd 7b6c f53d 1bd3 13be 9b4c 033e
00000280: eb00 ff3c b180 ec3c 974e a8bc cab0 643d
00000290: 2a66 123e 6824 b43c 05bb 423c 0979 cd3d
000002a0: 755c bbbd 3b66 68bd af5d 973d 4c03 143e
000002b0: 1892 33bd c5be 393b 2893 ac3d 6e78 1dbe
000002c0: e5e1 0abe fa08 6abb 2257 cdba a5ee f6bd
000002d0: bfd6 083e 2aa7 513d c789 55bd 6f3f 1d3e
000002e0: 3da3 963d 24ad 823d 8927 ec3c a459 e4bd
000002f0: 2fbe ee3b 4370 023e b3fb 22bd 2f69 a03d
00000300: 8e22 cb3d cdfb 163e 7f2a f9bd 1149 273d
00000310: 34c2 4e3d d392 53bd 7871 9e3d c27a 163d
00000320: 59f3 373e 62d7 0abe 4afb 4d3d 6444 c3bd
00000330: d305 333d 8e18 dd3d 68be 30be f55f 093e
00000340: b56e e73d e0d1 82bb 126f 3f3e 191a 603c
00000350: a069 30be 71fe 2bbe bf01 163e e891 00be
00000360: 37fe 75bd 48ce 963d ebbf 553d 702f 263e
00000370: d11b 5b3d 808f 143b 6c91 aa3d 3730 a1bd
00000380: 5d7c e93d a14f ebbd a5d6 70bd 0fa3 5bbd
00000390: e6ae afbd e2c4 a13c 4e2f 42bd 540f 8abd
000003a0: 9f31 093e 1d3d 013e 63ed c7bd 8f26 1b3e
000003b0: 2ced d93d 235d d7bc 6415 983d 23ab a2bd
000003c0: e7de 183e c20c 053c c88d 313e 73f1 233e
000003d0: 8f47 a03d 8442 783d 77e9 d23c fb2e 0cbe
000003e0: 6d53 eb3a 686d b33d cb66 3e3e e5c3 6b3d
000003f0: dc51 c2bd b3d7 75bc 9b85 babd c827 ed3c
0.13694015 -0.11002812 -0.035503928 -0.15611947 -0.18820082 -0.14989083 0.08718244 -0.12233567
0.07466597 0.10955728 0.05969127 -0.034877487 0.09062083 0.084858365 0.027047116 -0.07208558
0.1596836 0.08671819 -0.03505157 0.06205387 -0.1238177 -0.028439322 -0.129086 -0.18238758
0.121538684 0.061772738 -0.039288297 -0.06915572 -0.07150185 -0.0645642 -0.02616191 0.14553344
0.15109278 0.090926796 -0.118221894 -0.043402992 0.053939965 -0.11498189 0.15912433 -0.09845275
0.13515486 0.009107296 0.16371177 0.074768044 0.029385004 0.17838621 0.039266083 0.067225635
-0.07520329 -0.15813811 -0.12568764 -0.13453722 0.114722155 0.078022026 0.04999269 0.16550605
-0.10785289 0.09103481 0.011534627 -0.18592097 -0.13290735 0.1655808 0.15672635 0.043621838
-0.07111199 0.05943979 0.09092613 -0.083523616 -0.011713936 -0.13571718 0.1610925 -0.12978849
-0.10932254 -0.027306546 0.022246286 0.019533267 0.16101468 0.10351051 0.048655484 0.07543759
0.11123788 -0.017463733 -0.048981126 0.11872376 0.16012956 -0.009962403 -0.02500125 0.12849079
-0.07887372 0.12931764 -0.14985766 0.029943002 0.11588266 -0.1625387 -0.05372871 0.14823535
0.13011542 -0.116455235 0.14569111 0.13025066 0.07058052 -0.08555851 -0.071726255 -0.04440841
0.06536897 0.046235867 0.03824237 -0.11588244 0.14277107 0.012971821 0.052624803 -0.13283883
-0.040384572 -0.009068578 0.124506176 0.117561564 -0.13625263 -0.1169046 -0.10727849 -0.07018216
-0.15108603 0.15795666 -0.11124463 0.1458578 0.07949785 -0.09137095 -0.07314365 0.01335186
-0.19112831 -0.078400955 0.06192292 -0.13506085 0.17000131 -0.11067808 -0.006347698 -0.0898323
-0.07640329 -0.04635971 0.027132884 -0.09719913 0.034277543 0.07696067 0.07220193 -0.18629998
-0.07537787 0.11257103 0.1518596 0.09355313 -0.19591483 0.024201822 0.13850766 -0.004302531
0.13011132 -0.114029415 0.09063971 0.06276101 -0.04310871 0.11983582 -0.14435999 0.12822191
0.031128367 0.028869959 -0.020545287 0.05583266 0.14296785 0.021990016 0.011885409 0.10032851
-0.09148494 -0.05673812 0.073909156 0.14454383 -0.043840498 0.0028342467 0.08426505 -0.15377972
-0.13562734 -0.0035710917 -0.0015666226 -0.120572366 0.13363169 0.05118481 -0.052133348 0.15356229
0.07355354 0.0638068 0.028827446 -0.1114991 0.0072858552 0.12738137 -0.03979082 0.07832562
0.099187 0.14744492 -0.121663086 0.040841166 0.050478175 -0.051653694 0.07736486 0.036738165
0.17963924 -0.13558725 0.050288476 -0.09534529 0.043706726 0.10795699 -0.17260134 0.13415511
0.113004126 -0.003992304 0.18694714 0.013678097 -0.17227793 -0.1679628 0.14649104 -0.12555659
-0.06005689 0.07363564 0.05218498 0.16229033 0.053493325 0.002266854 0.08328518 -0.078705244
0.114006735 -0.114897974 -0.05879845 -0.0536223 -0.08578281 0.019747201 -0.047408395 -0.06741205
0.13397835 0.12620969 -0.09762075 0.15151428 0.1064094 -0.026289528 0.07425955 -0.07942798
0.1492878 0.0081207175 0.17339242 0.16010074 0.07826149 0.06061031 0.02574609 -0.13689797
0.001795394 0.08761102 0.185939 0.057559866 -0.0948827 -0.01500504 -0.091075145 0.028949633

bias f4 [32]
00000000: 1957 76bc b420 48be dacb 41be 5df7 13bd
00000010: 2a42 af3d 3117 2b3e 662b 14bd 53a7 87bb
00000020: 7f61 d33d 71f1 4fbd 8b2e e6bd 2478 4b3d
00000030: 3f19 2abd e8e9 0dbe 782d 85bc 99be fbbd
00000040: 7861 0fbe c3c6 0bbe d7f9 22bd c230 173d
00000050: 8839 e3bd cbae 35be 66d5 59bd d1a8 193e
00000060: 80e5 97bc 1261 2dbe c4cd 5bbd 285a 203e
00000070: 7256 633d da39 f8bc 0c31 3a3e 2937 8bbd
-0.015035414 -0.19543725 -0.1892542 -0.036124576 0.08557542 0.16708066 -0.0361742 -0.0041398196
0.1032133 -0.050767366 -0.11239346 0.049675122 -0.041527983 -0.1385876 -0.016257033 -0.12292213
-0.14002025 -0.1365004 -0.039789047 0.036911733 -0.110949576 -0.1774246 -0.05318203 0.15005805
-0.018542051 -0.1693156 -0.05366303 0.15659392 0.055502363 -0.030301023 0.18182772 -0.0679763

weight f4 [32]
00000000: 02f5 833f 3c24 7a3f 1575 813f 16dd 763f
00000010: 028c 763f 8d00 7e3f c044 7c3f 1744 813f
00000020: 51a7 823f ec3b 7f3f 8d37 803f af2d 763f
00000030: cd2d 6d3f 6063 733f 3c17 7d3f 9ebc 803f
00000040: d30f 753f 409e 803f 4ce5 863f 55a9 813f
00000050: b8c6 803f 97bd 7b3f d43d 713f b302 793f
00000060: b483 7e3f 6aaa 713f 2200 803f 4898 873f
00000070: 6b0d 783f cce6 773f 8f7e 763f ec86 843f
1.0309145 0.9771154 1.0113856 0.964311 0.96307385 0.9921959 0.98542404 1.0098904
1.0207311 0.9970081 1.0016953 0.9616346 0.9264801 0.9507351 0.9886358 1.0057561
0.9572727 1.0048294 1.0538726 1.0129801 1.0060644 0.98336166 0.9423497 0.97269744
0.99419713 0.94400656 1.000004 1.0593348 0.96895474 0.96836543 0.96286863 1.0353675

bias f4 [32]
00000000: 055a f8bb bcb2 4a3c e7f9 e03c ba03 97bc
00000010: db3b b7bb 8f2d 2e3c 0cb2 71bc 8778 583d
00000020: 5cf1 9a3b e406 8abc fc13 e53c a75e 1b3a
00000030: bc4b ecbb 2fa8 02bc b038 9abc 5e96 e5bc
00000040: ce1f 553d c2fb 493c a40e a2bc e844 b3bc
00000050: 98de 93bc 150b c93c 34b3 20bc f7fe 58bc
00000060: f2a5 0fbd 760d 47bc c704 62bc c5ba 593c
00000070: 935d 36bb e9c2 073d 8f5a 17bd ca0c 183c
-0.0075790905 0.012371715 0.027462913 -0.018434394 -0.005591852 0.010630979 -0.014751922 0.05284932
0.0047284793 -0.016848989 0.02796363 0.0005926885 -0.0072111767 -0.007974668 -0.018825859 -0.028025802
0.052032284 0.01232809 -0.019782372 -0.021883443 -0.018050477 0.024541417 -0.00980835 -0.013244382
-0.035070367 -0.012149205 -0.013795084 0.013289158 -0.002782677 0.033144865 -0.036951598 0.009280393

running_mean f4 [32]
00000000: 7744 5c3f f5d0 863f 7e75 853f 1c0e 3d3f
00000010: 240c 7e3f fb5c 3f3f c8d0 403f b372 913f
00000020: c293 623f 441c 6a3f e081 283f ff5f 2d3f
00000030: 7237 753f 0935 103f 82f1 633f 46f9 203f
00000040: 3181 3b3f b578 373f 2fe1 d13e 4ce7 a33f
00000050: f9d2 943f 2514 363f 0b91 8b3f 26c4 6d3f
00000060: 89f3 493f 5351 2d3f b917 823f f4a3 103f
00000070: e28f 863f 2d50 393f f59d 833f fd33 223f
0.8604197 1.0532519 1.0426481 0.73849654 0.99237275 0.7475125 0.75318575 1.1363128
0.8850671 0.9144938 0.65823174 0.67724603 0.9578773 0.56330925 0.89040387 0.6288036
0.73244005 0.7166856 0.40992114 1.2804961 1.1626884 0.7112449 1.0903639 0.92877424
0.7888723 0.67702216 1.016349 0.5650017 1.051266 0.72387964 1.028258 0.6336058

running_var f4 [32]
00000000: bc52 a83f f581 8040 d3fd 6140 8af1 f63f
00000010: d6ac 0040 4274 0440 4f5b 0940 d4dc 6a40
00000020: 0ae4 e13f f71e 1040 e433 593f 2e28 d33f
00000030: 681f 3340 cfa1 2a3f cd7b 0640 0fbf cb3f
00000040: 1cf3 0840 af95 de3f aa3b 023f 055d 4c40
00000050: 6a1c 8b40 4ee1 0440 5b9c 9440 0bf0 2b40
00000060: 534b a23f d3d1 e03f 6f3d 8040 8520 1b3f
00000070: 60e5 1040 2bd3 1940 d91f 9540 8e46 ad3f
1.3150249 4.015864 3.5311172 1.9292462 2.010549 2.0695958 2.146198 3.6697283
1.7647717 2.25189 0.84844804 1.6496637 2.798792 0.6665315 2.1013062 1.5917681
2.1398382 1.738943 0.5087229 3.1931775 4.3472185 2.0762515 4.6440864 2.686526
1.2679237 1.7564033 4.007499 0.60596496 2.264 2.4035137 4.6601377 1.3537157
